parnv-MC-plane/auto_LiRPA-master/examples/simple/models/spectral_NOR_MLP_B.pth (torch, 361142 bytes, 6 tensors)

1.weight f4 [100, 784]
0	0x3b2a55a1	0.002599098
1	0x3b2752d0	0.0025531538
2	0x3aefab4e	0.0018285306
3	0x3b35ec4d	0.0027759254
4	0x3b1cc30e	0.0023919973
5	0x3b42ce67	0.0029725076
6	0x3b339cd3	0.0027406707
7	0x3b5242ea	0.003208334
8	0x3b05c41a	0.0020411075
9	0x3b1847b4	0.0023236098
10	0x3b3639da	0.0027805478
11	0x3b4b3dec	0.003101225
12	0x3b07865e	0.0020679454
13	0x3b0ecb16	0.002178853
14	0x3b70f7a6	0.0036768704
15	0x3b33d864	0.0027442211
16	0x3b2737c4	0.0025515417
17	0x3b1ee84d	0.0024247349
18	0x3b0a7937	0.0021129379
19	0x3b167931	0.002296042
20	0x3b30fcf8	0.002700625
21	0x3b24041b	0.002502686
22	0x3b14ec42	0.0022723828
23	0x3b222ce5	0.0024745998
24	0x3b4f1c86	0.0031602695
25	0x3b14598e	0.0022636387
26	0x3b4115f0	0.0029462539
27	0x3b2a4612	0.0025981707
28	0x3b004541	0.0019572529
29	0x3b0c03f3	0.0021364659
30	0x3b4cd920	0.0031257346
31	0x3b23817f	0.0024949012
32	0x3b3f47fe	0.0029187198
33	0x3b2b8b34	0.00261755
34	0x3b840bbc	0.004029719
35	0x3bbb44ba	0.00571498
36	0x3bb792ef	0.0056022326
37	0x3b764f30	0.003758382
38	0x3b004f5a	0.0019578547
39	0x39f96cd7	0.00047574073
40	0x3be7b990	0.0070716813
41	0x3bf9fef0	0.007629268
42	0x3b823a11	0.003974207
43	0x3b95f08b	0.004575794
44	0x3c6ae741	0.014337362
45	0x3c0632bd	0.008190808
46	0x3ba1bb93	0.0049356907
47	0x3b68bfaa	0.0035514631
48	0x3ac46fec	0.0014986969
49	0x3ac20c3f	0.0014804675
50	0x3ad1f1d3	0.0016017504
51	0x3b16b34f	0.002299506
52	0x3b2e078c	0.0026554791
53	0x3b1742a3	0.002308049
54	0x3b31ef46	0.0027150675
55	0x3b1f7f98	0.0024337526
56	0x3b4eea4a	0.0031572753
57	0x3b255c9f	0.0025232208
58	0x3b1abae9	0.0023609942
59	0x3b1a132e	0.0023509967
60	0x3b204eb5	0.0024460976
61	0x3b321d0d	0.002717796
62	0x3b8c4ab5	0.0042813667
63	0x3bab565d	0.005228801
64	0x3bac2590	0.0052535012
65	0xbbe66e53	-0.0070321946
66	0xbc532285	-0.012886648
67	0xbc2af8ff	-0.010435342
68	0xbbd3be06	-0.0064618615
69	0xbbf78b12	-0.0075544203
70	0x3be5aa9e	0.0070088645
71	0x3c6b79b9	0.014372283
72	0x3cc5e54a	0.024157185
73	0x3cdc1176	0.026863795
74	0x3c0bf550	0.008542374
75	0xbb80f938	-0.003935959
76	0x3b4ab35e	0.0030929665
77	0xbb1bee8d	-0.002379331
78	0xbb84eaa1	-0.0040562903
79	0x3ac7f5f1	0.0015255791
80	0x3b6172c5	0.0034400683
81	0x3b3af1d8	0.0028525498
82	0x3b31ae78	0.0027112048
83	0x3b2defd4	0.0026540654
84	0x3b183e0f	0.002323035
85	0x3af40a78	0.0018618843
86	0x3b004f54	0.0019578533
87	0x3b2f5601	0.0026754143
88	0x3b0e1c1d	0.0021684237
89	0x3bc1d8c5	0.0059157335
90	0x3c229c5a	0.009924972
91	0x3bbba132	0.005726003
92	0xbb48c414	-0.003063445
93	0x3a8e8cb5	0.0010875674
94	0xb98e5b56	-0.000271524
95	0x3b0fbce2	0.0021932651
96	0xbc1cfd54	-0.0095818825
97	0x3ccd6ede	0.02507728
98	0x3ccfdf63	0.025375074
99	0x3aa55ec9	0.0012616749
100	0xbc98291a	-0.018574286
101	0xbd010e7b	-0.03150795
102	0xbd471114	-0.04860027
103	0xbd42d1c0	-0.047563314
104	0xbcd32ae1	-0.025777282
105	0xbb748ee8	-0.0037316624
106	0xbb67d2fe	-0.0035373564
107	0xbc197d2f	-0.009368225
108	0xbbb44786	-0.0055016903
109	0x3ad96878	0.001658692
110	0x3b0755de	0.0020650546
111	0x3b309ffa	0.0026950822
112	0x3b56a842	0.0032754098
113	0x3b3300af	0.002731364
114	0x3ae4c31c	0.0017453167
115	0x3b37d400	0.0028049946
116	0x3ba38db7	0.004991259
117	0x3ba0c07e	0.0049057594
118	0xbaeb8671	-0.0017969144
119	0xbcaf5479	-0.021402584
120	0xbc380493	-0.011231559
121	0x3ceaf49b	0.02868109
122	0x3d1c28a4	0.038124695
123	0x3cec3e0b	0.028838178
124	0xba453335	-0.0007522584
125	0xbc9f319d	-0.019432837
126	0xba1a9fe8	-0.00058984617
127	0xbd606e6a	-0.0547928
128	0x3c6853ea	0.014180163
129	0x3cb177e9	0.021663623
130	0xbbc35f59	-0.005962294
131	0xbd07ebea	-0.03318397
132	0xbc0c09bd	-0.008547244
133	0xbcaa9d51	-0.020826967
134	0xbc823f7f	-0.015899418
135	0xbcea3166	-0.028588008
136	0xbc875c78	-0.016523585
137	0x3c04a4a4	0.008095894
138	0x3bc691f9	0.0060598818
139	0x3b33ecad	0.0027454302
140	0x3b1b8ede	0.0023736279
141	0x3b073f92	0.0020637256
142	0x3b045f28	0.002019832
143	0xb9d82bcd	-0.00041231365
144	0xb9c0072c	-0.00036626437
145	0xbba50873	-0.0050364076
146	0xbd052602	-0.03250695
147	0xbcda8421	-0.026674332
148	0x3d222594	0.03958662
149	0x3d1a5e0a	0.03768734
150	0x3c90d8e6	0.01768155
151	0x3c1b2cba	0.009471113
152	0xbd0a0c68	-0.033703238
153	0xbcb45d30	-0.022017092
154	0xbc151794	-0.00909986
155	0x3b9e16c6	0.004824492
156	0x3cf300c1	0.029663445
157	0x3d0ebcee	0.034848146
158	0x3cd65bb5	0.026166776
159	0x3bc40ba4	0.005982833
160	0x3d1971c8	0.037462026
161	0x3c229852	0.009924011
162	0xbcdabb7e	-0.026700731
163	0xbd707eaf	-0.058714565
164	0xbc7688fd	-0.015047309
165	0x3c804e2d	0.015662277
166	0xb928c3c1	-0.00016094653
167	0x3aa3a63f	0.0012485458
168	0x3b3732cf	0.0027953868
169	0x3b36f27f	0.0027915535
170	0x3add6e99	0.0016893923
171	0xbbe71aae	-0.007052741
172	0xbb9a354e	-0.0047060614
173	0x3b8792f0	0.0041373894
174	0xbca7dd11	-0.020491155
175	0x3b84cecd	0.004052973
176	0x3d310828	0.04322067
177	0x3d03b36a	0.032153524
178	0xbd18efe7	-0.037338164
179	0xbca79f2e	-0.020461645
180	0xbd1ef5d5	-0.038808662
181	0xbc580bdf	-0.013186424
182	0x3d1e9af3	0.03872199
183	0x3cdb1439	0.026743041
184	0x3c8892ce	0.016671564
185	0xbc94414c	-0.018097542
186	0x3c172b26	0.009226596
187	0x3d19aa4b	0.03751592
188	0x3aa37205	0.0012469894
189	0xbb57e2f7	-0.0032941678
190	0x3ba95831	0.005167984
191	0x3c3e55b9	0.011617118
192	0xb9ffbbff	-0.00048777458
193	0x3a909f73	0.0011033848
194	0xbb891f1c	-0.0041846167
195	0xbb5c9596	-0.0033658496
196	0x3b43a827	0.0029854865
197	0x3affd966	0.0019519746
198	0x3b1e9aef	0.0024201234
199	0xbacbfaa2	-0.0015562365
200	0xb9aa9f76	-0.00032543734
201	0x3bd9a170	0.0066415593
202	0x3affeb43	0.001952507
203	0xbc7c0332	-0.015381621
204	0x3d174fcd	0.03694134
205	0x3d1158b4	0.035484985
206	0x3d1987cd	0.037483025
207	0x3c134909	0.008989581
208	0xbd67f8b3	-0.056633662
209	0xbd208586	-0.039189838
210	0xbc3450c3	-0.011005583
211	0x3ca28d7e	0.01984286
212	0xbd14d2dc	-0.036333904
213	0x3d15e618	0.036596388
214	0x3cee7142	0.02910674
215	0x3c850117	0.016235871
216	0x3c8f0367	0.017457677
217	0xba95a9fa	-0.0011418455
218	0xbd0d4274	-0.034487203
219	0x3c26b5de	0.010175196
220	0x3ca7699d	0.020436103
221	0x3a9e2a7f	0.0012067108
222	0xbbce8887	-0.0063028964
223	0x3a9e2911	0.0012066682
224	0x3b105b38	0.0022027027
225	0x3afd9552	0.0019346869
226	0x3b851390	0.00406117
227	0x3ab5c9de	0.0013869365
228	0xbc9a8879	-0.018863903
229	0xbaad4362	-0.0013218934
230	0xbc336eed	-0.01095174
231	0xb9296322	-0.00016154026
232	0x3ccbc946	0.024876248
233	0x3d9e92a0	0.0774281
234	0x3dd7df07	0.10540586
235	0x3d3419b7	0.043969836
236	0xbd60756f	-0.054799493
237	0xbd81d3dc	-0.06339237
238	0xbd2bf482	-0.041981228
239	0x3d69a9e6	0.057046793
240	0x3d0c22d1	0.03421289
241	0x3c6ad1b7	0.0143322265
242	0x3c6e890c	0.014559042
243	0xbc8211d5	-0.015877644
244	0x3b3dc35c	0.0028955555
245	0xbc4efb3d	-0.012633142
246	0xbce85745	-0.028361926
247	0x3c3a88dc	0.011385169
248	0x3d333155	0.04374822
249	0x3c915097	0.017738624
250	0x3c0f2fd5	0.008739431
251	0x3ba5b6bb	0.0050571836
252	0x3b2dd1f4	0.0026522847
253	0x3a7a00e9	0.0009536879
254	0x3b52f3e7	0.0032188834
255	0xbb95d41b	-0.004572404

1.bias f4 [100]
0	0xbdd68eb5	-0.10476438
1	0x3ea2423a	0.31691152
2	0xbf872d9f	-1.0560797
3	0x3e8e8efc	0.27843463
4	0x3ec259e9	0.3795922
5	0xbeda5f39	-0.42650774
6	0xbd90e26a	-0.07074435
7	0xbe3b041a	-0.18263283
8	0xbeeac7c2	-0.45855528
9	0xbdf78737	-0.12086337
10	0x3e205f1f	0.15661286
11	0xbe15121e	-0.14557692
12	0x3e8e2e17	0.2776954
13	0xbd8fe982	-0.0702696
14	0xbd67f5de	-0.05663096
15	0x3cb37d3c	0.021910302
16	0x3e541e3f	0.20714663
17	0xbe59c825	-0.21267755
18	0x3ecd97a4	0.40154755
19	0xbd8272d6	-0.063695595
20	0xbf072b3e	-0.5280036
21	0xbd778dc7	-0.060437944
22	0xbdca712f	-0.09884869
23	0xbe89dd46	-0.2692663
24	0x3e994f78	0.29943442
25	0x3e64fcd0	0.22362065
26	0x3ee5b7bf	0.4486675
27	0x3f7a8f51	0.97874933
28	0x3d65fc07	0.056148555
29	0x3e4d7713	0.20064954
30	0x3f8f093d	1.1174694
31	0xbeba86ac	-0.3643087
32	0x3ea616e1	0.3243933
33	0x3ef2e61f	0.47441193
34	0x3cf94756	0.030429523
35	0x3ec429cb	0.38313136
36	0x3ecb046a	0.39651805
37	0xbe934ebd	-0.2877101
38	0xbdd6b7ec	-0.10484299
39	0x3e50c4c9	0.20387568
40	0x3f466218	0.7749343
41	0x3f646150	0.8921099
42	0xbf176011	-0.5913096
43	0xbcd94059	-0.026519941
44	0x3e7f75d6	0.24947295
45	0x3e2be937	0.16788183
46	0x3e52ba15	0.20578797
47	0x3e998d81	0.2999077
48	0x3e41c336	0.18922123
49	0x3e886fd9	0.26647833
50	0xbe03bec5	-0.12865742
51	0x3f1ef4ae	0.620921
52	0xbe321b09	-0.17393126
53	0x3dac47db	0.08412143
54	0xbe833e8f	-0.25633666
55	0x3ea87bf2	0.32907063
56	0x3de9f7d1	0.1142422
57	0xbd62e5d4	-0.055394962
58	0xbefce219	-0.4939125
59	0x3f2c0cc2	0.67206967
60	0xbe9d2a69	-0.3069642
61	0x3d8e40a3	0.06945922
62	0x3e02e6fa	0.12783423
63	0x3f113a3c	0.56729484
64	0x3e491435	0.19636615
65	0xbe808575	-0.2510182
66	0xbe90ef5e	-0.28307623
67	0x3ddbb361	0.10727573
68	0x3f212013	0.62939566
69	0x3f6c702c	0.9235866
70	0x3e41511b	0.18878596
71	0xbcf919bf	-0.030407785
72	0x3ef82fbf	0.48473927
73	0x3e33f817	0.17575108
74	0xbe0b862d	-0.13625403
75	0x3dadb1af	0.08481156
76	0x3efbfaf1	0.4921489
77	0x3f1edd96	0.62056863
78	0x3f321769	0.6956697
79	0xbdb75cb9	-0.08953232
80	0x3ec5e646	0.38652247
81	0xbdc8c58a	-0.098033026
82	0x3f399b2b	0.7250239
83	0x3df01107	0.11721998
84	0x3f0090e1	0.5022107
85	0x3e8fd253	0.28090152
86	0xbf357133	-0.70875853
87	0x3ef44f24	0.4771663
88	0xbe0a18ac	-0.13485974
89	0xbe92ecdd	-0.28696337
90	0xbe567847	-0.2094432
91	0xbe36ccb0	-0.1785152
92	0x3d9e85e5	0.07740382
93	0x3d1511a7	0.036393788
94	0x3ccaa1db	0.024735382
95	0x3ddcbb2d	0.107778884
96	0x3e3fb716	0.18722185
97	0xbe0e5575	-0.13899787
98	0xbec9e3e4	-0.3943168
99	0x3f217406	0.6306766

3.weight f4 [100, 100]
0	0x3d938680	0.07203388
1	0xbd6d8dd6	-0.057996593
2	0x3d3937fe	0.045219414
3	0xbc5d8838	-0.013521247
4	0x3d078ba5	0.03309216
5	0xbe210d16	-0.15727648
6	0xbe55e2e5	-0.20887335
7	0xbcfef5e3	-0.031123107
8	0xbae7c8fc	-0.0017683799
9	0xbd0dab93	-0.034587454
10	0xbcfd4f33	-0.030921554
11	0xbd334c51	-0.043773953
12	0xbdc6e8c5	-0.09712366
13	0x3c7dd706	0.01549316
14	0xbca8c681	-0.020602467
15	0xbc526460	-0.012841314
16	0xbd2e1f6b	-0.04251043
17	0xbc9d2f72	-0.019187663
18	0xbd268a89	-0.04065946
19	0x3d38f740	0.04515767
20	0xbcf4eda4	-0.029898472
21	0xbc0e8fc9	-0.008701273
22	0x3cac16bb	0.021006932
23	0xb969e05e	-0.00022304195
24	0x3d9f4065	0.07775954
25	0x3cd716d1	0.026255997
26	0x3ccdde9d	0.025130564
27	0x3d7f213a	0.062287547
28	0x3c1d42cc	0.009598445
29	0xbce65b92	-0.028119836
30	0x3d408740	0.047003984
31	0xbd08534c	-0.033282563
32	0xbc3eeab9	-0.011652642
33	0xbdcce7d3	-0.100051545
34	0x3e0282e8	0.1274525
35	0xbd8467d5	-0.06465117
36	0xbd45173f	-0.048117872
37	0x3c453069	0.012035468
38	0x3bd35be3	0.0064501627
39	0x3db3785e	0.087631926
40	0x3c52f81c	0.012876537
41	0xbd0a3905	-0.033745784
42	0x3d814115	0.063112415
43	0xbdd5b08a	-0.10434063
44	0x3cdf7e8b	0.02728202
45	0x3cdd0a2a	0.026982386
46	0x3e9b044b	0.30276713
47	0x3d9d4baa	0.076804474
48	0xbd82ef31	-0.063932784
49	0xbda8a33a	-0.08234258
50	0x3bf42b8c	0.0074514803
51	0xbcdf5b2e	-0.027265158
52	0xbd04150b	-0.03224663
53	0x3b756f86	0.0037450506
54	0xbe803d5b	-0.2504681
55	0xbd5b6c80	-0.05357027
56	0x3c76a615	0.0150542455
57	0x3c8dcb7e	0.017308947
58	0xbd6eeed9	-0.05833325
59	0xbd1f85e1	-0.038946036
60	0x3d47b218	0.048753828
61	0x3c33f8a7	0.010984576
62	0x3c0061f3	0.007835853
63	0x3c03e5df	0.008050411
64	0x3db243ae	0.08704315
65	0xb9f0ea9b	-0.00045951162
66	0x3c1e846b	0.009675126
67	0x3db1b4e6	0.08677082
68	0x3d51dcee	0.051236086
69	0x3d6b16c2	0.05739475
70	0xbd5b7d64	-0.05358638
71	0x3c848956	0.016178768
72	0xbc3880d4	-0.011261184
73	0xbd4d9dbe	-0.050199263
74	0x3a3c42db	0.0007181593
75	0xbde25cea	-0.11052878
76	0xbe1a35c7	-0.15059577
77	0x3d3b13a1	0.045673016
78	0xbc004a98	-0.007830285
79	0xbbead56c	-0.007166555
80	0x3e822eca	0.25426322
81	0xbdf48059	-0.11938543
82	0x3e07635b	0.13221495
83	0x3d83697d	0.06416605
84	0xbd8ce737	-0.06880038
85	0x3d6797ce	0.056541257
86	0x3bb52ae3	0.005528794
87	0x3ca1ef00	0.019767284
88	0x3c928e5b	0.017890146
89	0x3cf11794	0.029430188
90	0x3dd34400	0.10315704
91	0x3b76a0b8	0.0037632417
92	0xbd665d54	-0.05624135
93	0xbd39de54	-0.045378044
94	0xbcceac6a	-0.025228698
95	0x3e00a327	0.12562238
96	0xbcb873cc	-0.022516154
97	0xbccaeeae	-0.024772014
98	0xbd44b5b4	-0.048024848
99	0xbcfbe345	-0.030748019
100	0x3b8a4baf	0.004220448
101	0x3d452b95	0.048137266
102	0x3d3a1a90	0.04543549
103	0x3cab4de4	0.020911165
104	0x3c2588ef	0.010103448
105	0x3bc0554c	0.005869543
106	0xbce0aa35	-0.027424911
107	0x3c3ade46	0.011405533
108	0xbc82501f	-0.015907345
109	0x3c822df0	0.015891045
110	0xbcca7a24	-0.024716444
111	0xbcfecd9d	-0.031103903
112	0x3ba5cfdb	0.0050601787
113	0xbcd76d6f	-0.0262973
114	0xbd7f54b3	-0.062336635
115	0xbd22710a	-0.039658584
116	0xbc9ec312	-0.019380126
117	0xbc8cf4a8	-0.017206505
118	0x3cc501f3	0.024048781
119	0xbba8f642	-0.0051563093
120	0x3c4e4752	0.012590246
121	0x3bbade94	0.005702803
122	0xbc655343	-0.013996902
123	0xbc860a9d	-0.016362483
124	0xbcaedef1	-0.021346541
125	0xbd000754	-0.03125699
126	0x3c1b1445	0.009465282
127	0x3c08d594	0.008351702
128	0xbb0f1ff1	-0.0021839107
129	0x3c0355d0	0.008016065
130	0xbd91b941	-0.071154125
131	0xbc5d1c47	-0.013495511
132	0x3bef4038	0.0073013566
133	0x3c2571eb	0.010097961
134	0xbc76f0b8	-0.01507204
135	0xbc208ed0	-0.009799674
136	0xbc2167fe	-0.009851454
137	0xbbee71ba	-0.007276741
138	0xbcb74242	-0.022370461
139	0xbc2699cd	-0.010168505
140	0x3d24cf3b	0.040236693
141	0x3d3646ba	0.044501044
142	0x3a8e6a4e	0.0010865422
143	0xbc97cd84	-0.018530615
144	0xbd51b1f4	-0.0511951
145	0x3d8d710a	0.06906326
146	0xbb8842b8	-0.004158344
147	0x3c65cb81	0.01402557
148	0x3b85538a	0.0040687965
149	0xbbd34d16	-0.0064483983
150	0xbc17b40a	-0.009259233
151	0xbd577d12	-0.05260951
152	0xbcd5c7a6	-0.026096176
153	0x39f577c3	0.0004681927
154	0x3bcc62e9	0.006237377
155	0xbc8dda4f	-0.017316012
156	0x3c88c736	0.016696554
157	0x3c895d70	0.016768187
158	0x3ccd2479	0.025041806
159	0xbca2305d	-0.019798452
160	0xbd233076	-0.039841138
161	0xbb651f79	-0.0034961386
162	0x3c6e3a06	0.014540201
163	0xbcc1cf35	-0.023658374
164	0x3cb941d9	0.022614406
165	0x3cb6c84d	0.022312308
166	0x3b9889e9	0.004655112
167	0xbd82c5bb	-0.0638537
168	0x397a592f	0.00023875081
169	0x3d20f4ae	0.039295845
170	0xbca14469	-0.01968594
171	0x3c6da97f	0.014505743
172	0xbc9b3cec	-0.018949948
173	0xbd208652	-0.039190598
174	0xbc5eb0bf	-0.013591944
175	0x3c585089	0.013202795
176	0xbc6062cb	-0.013695429
177	0x3ce31a29	0.027722435
178	0xbb7e627a	-0.003881602
179	0x3b2143b4	0.0024607005
180	0x3ca528a9	0.02016099
181	0x3bbdaeb4	0.0057886485
182	0xbc09b8a0	-0.008405834
183	0xbccc4676	-0.024935942
184	0xbcf1e120	-0.029526293
185	0x3bb68476	0.00556999
186	0xbc37e80a	-0.011224756
187	0x3c292e67	0.010326005
188	0x3c0d7aa0	0.008635193
189	0xbba4ae4f	-0.005025662
190	0xbcc7641b	-0.024339726
191	0xbd11d764	-0.035605803
192	0xbc447b80	-0.011992335
193	0x3acb1ffc	0.0015497203
194	0xbb831e74	-0.004001433
195	0x3d099177	0.03358599
196	0xbb727346	-0.0036994978
197	0xbd1ffabc	-0.03905748
198	0xbbe5f84a	-0.0070181238
199	0xbc3dcf53	-0.0115850745
200	0xbea10b1b	-0.31453785
201	0x3cb8c6b0	0.02255568
202	0xbdf2be4c	-0.118527025
203	0xbd0b96ea	-0.03407947
204	0x3e5d2e03	0.21599583
205	0x3c94ffce	0.018188383
206	0xbe3e0bac	-0.1855914
207	0xbe073539	-0.13203897
208	0xbc1779de	-0.009245364
209	0x3ced23cd	0.028947735
210	0x3d0c6cf5	0.034283597
211	0xbd2c1a5b	-0.042017322
212	0xbbf5a8cb	-0.0074969283
213	0xbcb2817e	-0.021790262
214	0xbc690ba4	-0.014223967
215	0x3d383a79	0.04497764
216	0x3cc9006d	0.024536336
217	0x3dbecf1c	0.09316847
218	0x3d852c99	0.06502647
219	0x3c9c86d9	0.01910727
220	0xbba7445f	-0.005104586
221	0xbc29e157	-0.010368667
222	0xba1c9386	-0.00059729104
223	0x3cb49d1c	0.022047572
224	0xbd07f7a9	-0.03319517
225	0xbd74cef6	-0.059767686
226	0x3db5be7a	0.08874221
227	0x3c83612d	0.016037548
228	0xbc8fdddb	-0.017561844
229	0xbd87b42c	-0.06626162
230	0xbd431acc	-0.047632977
231	0x3dec81e9	0.11548216
232	0x3ca68a80	0.020329714
233	0xbdfb1ed0	-0.122617364
234	0x3e051a54	0.12998325
235	0xbd45c346	-0.04828193
236	0x3e2db41a	0.16963235
237	0xbcac4a02	-0.021031383
238	0x3cd79881	0.026317837
239	0x3ac3f053	0.0014948942
240	0xbdbf3c99	-0.0933773
241	0x3d92f0c3	0.07174828
242	0x3ce593b9	0.028024541
243	0x3c16f5af	0.009213849
244	0x3c0a8390	0.0084542185
245	0x3d1dff13	0.038573336
246	0x3bebb267	0.007192898
247	0xbcf88ded	-0.030341113
248	0xbd7dd721	-0.06197274
249	0xbd7956a8	-0.060873657
250	0xbd8c4276	-0.06848614
251	0xbcb55d4b	-0.022139212
252	0x3ce71c55	0.028211752
253	0x3dc8a510	0.09797108
254	0xbb96bcee	-0.004600159
255	0xbd549a26	-0.05190482

3.bias f4 [100]
0	0x3e10bcf1	0.14134575
1	0x3d169459	0.03676257
2	0x3ebb0831	0.36529687
3	0x3ee826b1	0.4534202
4	0x3e602203	0.21887974
5	0xbe57d228	-0.21076262
6	0xbdc2f575	-0.095194735
7	0xbdb9d7db	-0.09074374
8	0x3d540927	0.05176654
9	0xbe0f753e	-0.14009568
10	0xbd705869	-0.058678064
11	0xbce97dd2	-0.028502379
12	0x3e9721ad	0.2951788
13	0x3e88b43d	0.2670001
14	0x3c09fce3	0.008422109
15	0x3e83539c	0.25649726
16	0x3efc9d59	0.49338797
17	0x3dc1d340	0.09464121
18	0x3e622e3b	0.22087948
19	0xbe9ee38f	-0.31032988
20	0x3d1c825b	0.038210254
21	0xbc8e21fe	-0.017350193
22	0x3dc01569	0.09379084
23	0x3e69211d	0.22766538
24	0x3ce0489b	0.027378371
25	0xbe45a7e4	-0.19302326
26	0x3ef1c40d	0.47219887
27	0xbe93d10e	-0.28870434
28	0xbd991924	-0.07475498
29	0x3d94dbd0	0.072684884
30	0xbd0bee87	-0.034163024
31	0xbd6ca377	-0.05777308
32	0x3c884f8c	0.016639493
33	0xbbc7b3ae	-0.0060944175
34	0xbd1e8267	-0.03869858
35	0x3c9ec879	0.019382702
36	0xbed19539	-0.4093416
37	0xbd995f2f	-0.07488858
38	0x3cd6e335	0.026231388
39	0x3a949b2d	0.001133775
40	0xbbeddeb1	-0.007259213
41	0x3eb18602	0.34672552
42	0x3d5be7e6	0.053687952
43	0xbde6d14c	-0.11270389
44	0xbe6181dc	-0.22022194
45	0xbdac94aa	-0.08426793
46	0xbb2fb93f	-0.0026813296
47	0x3e9e4aea	0.3091653
48	0x3e2e0c25	0.1699682
49	0xbeb5132b	-0.35366186
50	0x3d277885	0.04088642
51	0xbe050ba2	-0.12992719
52	0x3c943e3a	0.018096078
53	0xbe0ea594	-0.1393035
54	0xbbdb24f3	-0.0066877543
55	0x3d563c36	0.052303515
56	0x3d0bf44a	0.03416852
57	0xbdb2d04e	-0.08731137
58	0xbe27e0d2	-0.16394356
59	0x3de56b4a	0.112021044
60	0xbdc2b3e5	-0.095069684
61	0x3e9a2366	0.30105132
62	0x3d821aae	0.06352745
63	0xbe306e26	-0.17229518
64	0xbe161f7a	-0.14660445
65	0x3ec884ff	0.39163968
66	0xbdea0455	-0.114266075
67	0x3e7b8448	0.2456218
68	0x3cd45e03	0.025923735
69	0x3e6c1b18	0.2305721
70	0xbd91b30f	-0.07114231
71	0x3dd89d36	0.105768606
72	0xbd0e2cca	-0.034710683
73	0x3e7e3829	0.24826111
74	0xbc0416dc	-0.008062091
75	0x3e8e5954	0.27802527
76	0xbe257e23	-0.16161399
77	0x3e77dca9	0.24205269
78	0x3e0097be	0.12557885
79	0x3ea77e6b	0.32713637
80	0x3e0f7b0e	0.14011785
81	0xbcf4f0d4	-0.029899992
82	0xbdeaf21a	-0.114719585
83	0xbd23968c	-0.039938495
84	0x3e430b8a	0.1904737
85	0x3e09e7ce	0.13467333
86	0xbe717924	-0.23581368
87	0xbcd6c2cf	-0.026215939
88	0x3f0a23c6	0.53960836
89	0x3d576b2d	0.052592445
90	0x3e93abc4	0.28841984
91	0xbd017890	-0.031609118
92	0x3c808845	0.015689978
93	0xbe987212	-0.2977453
94	0x3f099ae7	0.5375199
95	0x3d9fb6e5	0.07798556
96	0xbd0cf39f	-0.034412023
97	0x3de31685	0.1108828
98	0x3e0c2d10	0.13689065
99	0x3e3034a5	0.17207582

5.weight f4 [10, 100]
0	0x3d973956	0.07383983
1	0x3b78248b	0.0037863578
2	0xbdc48ce9	-0.09597189
3	0x3e110ce1	0.14165069
4	0xbd8bad59	-0.06820173
5	0x3cd5e745	0.026111254
6	0x3e00d351	0.12580611
7	0x3b9ae9a0	0.0047275573
8	0xbdf51997	-0.119677715
9	0x3e89c766	0.2690994
10	0xbd17a605	-0.037023563
11	0x3b4fa0f7	0.0031681636
12	0xbdec9a8b	-0.11552914
13	0x3b52cb3a	0.003216459
14	0xbc65ccda	-0.014025891
15	0xbd08b7ef	-0.033378538
16	0xbcd3f093	-0.02587155
17	0x3b8f5a51	0.00437478
18	0xbdc9ed3e	-0.098597035
19	0x3c7c79bc	0.015409883
20	0xbd8c4d09	-0.06850631
21	0xbde0c3a6	-0.10974817
22	0x3b2dd92d	0.0026527152
23	0x3dad1123	0.08450534
24	0xbd072082	-0.032989986
25	0xbdf93d85	-0.12169937
26	0xbd077a0c	-0.033075377
27	0x3c3839e6	0.011244273
28	0x3b5e95c7	0.0033963786
29	0x3cad90a5	0.021187136
30	0xbca78835	-0.02045069
31	0xbab40519	-0.0013734429
32	0xbbe6fcaf	-0.007049165
33	0xbad1e368	-0.0016013207
34	0x3d521f62	0.05129946
35	0x396098f8	0.0002141929
36	0x3d1b08b3	0.037850093
37	0x3ba3d7ee	0.005000106
38	0xbb11258d	-0.0022147626
39	0xbd95443b	-0.072884046
40	0xbcc09e13	-0.023512876
41	0xbcd557f8	-0.026042923
42	0xbcde3142	-0.027123097
43	0x3d039cc5	0.03213193
44	0xbd2acf86	-0.041701816
45	0x3e095cf4	0.13414365
46	0x3d9c3438	0.076271474
47	0xbd9d9464	-0.07694319
48	0xbd674232	-0.056459613
49	0xbbf941c2	-0.007606716
50	0x3cdc53ed	0.026895488
51	0xbb951e19	-0.004550707
52	0xbd6832d3	-0.056689095
53	0xbaff95dc	-0.0019499618
54	0xbd8b6e52	-0.06808151
55	0x3cd56908	0.02605106
56	0xbc9f6d8d	-0.019461418
57	0xbd051f14	-0.03250034
58	0xbcdb99e4	-0.02680678
59	0x3d5ab12c	0.05339162
60	0xbd8f0e58	-0.06985158
61	0xbd2c89d0	-0.042123616
62	0xbd74a77c	-0.059730038
63	0x3b2a4394	0.002598022
64	0xb519f30e	-5.735063e-07
65	0xbd1db7f3	-0.038505506
66	0xbbd38e04	-0.0064561386
67	0x3d3ea33b	0.046542387
68	0xba5244c6	-0.00080211123
69	0xbe9d2593	-0.3069273
70	0x3e644859	0.22293223
71	0xbc821e8b	-0.015883705
72	0x3e87b40e	0.26504558
73	0xbce911c5	-0.028450856
74	0xbdecadf7	-0.11556619
75	0x3c65e8a5	0.014032518
76	0xba8b010a	-0.0010605168
77	0xbd8d0cf6	-0.06887238
78	0xbc8bd517	-0.017069383
79	0xbdfb2c2e	-0.12264286
80	0x3cc96940	0.02458632
81	0x3e0473ec	0.12934846
82	0xbd4cf3b1	-0.05003709
83	0xbaae100b	-0.0013279928
84	0xbe45b12e	-0.1930587
85	0xbd0221e0	-0.031770587
86	0x3cc42cc2	0.023947123
87	0x3da407dd	0.08009312
88	0xbe2f2705	-0.17104729
89	0xbb1a9653	-0.0023588135
90	0x3d41d484	0.04732181
91	0x3c702b95	0.014658828
92	0xbdcf92b1	-0.10135401
93	0xb9847aa6	-0.00025268382
94	0x3d2d8c56	0.042370163
95	0xbd916b6f	-0.071005695
96	0xbc571f50	-0.013130024
97	0xbe2bff0e	-0.16796514
98	0x3c7ef129	0.015560427
99	0xbd24f9b1	-0.040277187
100	0xbd6113a2	-0.054950364
101	0x3b7ec048	0.0038871933
102	0xbdd44d0b	-0.10366257
103	0xbe763dde	-0.24047038
104	0xbdc8e73b	-0.09809729
105	0x3e80f23d	0.25184813
106	0xbd81d100	-0.06338692
107	0x3b860542	0.0040899822
108	0x3dc7c03e	0.09753464
109	0xbd91d5bf	-0.07120847
110	0xbd46a7d6	-0.048499905
111	0xb94e51b8	-0.00019676134
112	0x3b8feef5	0.0043924996
113	0xbd174bbd	-0.036937464
114	0xbda58a50	-0.08083022
115	0xbd273ef7	-0.040831532
116	0x3d53828a	0.051638164
117	0xb88b276e	-6.635381e-05
118	0x3e2afd67	0.16698228
119	0x3df7ea76	0.12105267
120	0xbd768399	-0.060184095
121	0xbd829652	-0.063763276
122	0x3ae0dac6	0.0017155043
123	0xbb614fda	-0.003437987
124	0xbd19070c	-0.037360236
125	0xbc666ce1	-0.014064045
126	0xbd648666	-0.055792235
127	0xbd179330	-0.037005603
128	0xbd39828c	-0.045290515
129	0xbd98c2e1	-0.07459045
130	0x3da1fedf	0.07909941
131	0xbd049875	-0.032371957
132	0xbb7cd462	-0.0038578738
133	0xbd835e4c	-0.0641447
134	0xbd5b6959	-0.053567264
135	0x3c136fef	0.008998855
136	0xbd0109a5	-0.03150334
137	0xb885073e	-6.343283e-05
138	0x3e506a22	0.20352986
139	0xbcaf4703	-0.021396166
140	0x3d8a8403	0.067634605
141	0xbc93f153	-0.018059408
142	0x3c7ac514	0.015305776
143	0xbd727e21	-0.059202317
144	0x3e5501c4	0.20801455
145	0x3d1ff508	0.03905204
146	0x3d5913c3	0.052997362
147	0xbdee9aed	-0.116506435
148	0xbd2fbed1	-0.042906586
149	0xb833d476	-4.2874795e-05
150	0xbcd84449	-0.026399748
151	0xb9930eec	-0.00028049143
152	0xbd6e5584	-0.058187023
153	0x3a98cdeb	0.0011658048
154	0x3c9a0c3f	0.018804668
155	0x3df21d48	0.11821991
156	0xbc0b7f28	-0.008514203
157	0xbd1f0009	-0.038818393
158	0x3e2bb998	0.16770017
159	0x3bb37cad	0.005477509
160	0xbd7e2d89	-0.062055144
161	0xbd370b41	-0.044688467
162	0x3de97ad9	0.114003845
163	0x396e9b88	0.00022755389
164	0x3a5a74c4	0.00083334395
165	0xbd85c716	-0.06532113
166	0xbbf67c59	-0.0075221476
167	0xbc09c220	-0.008408099
168	0x3bcfbe39	0.006339815
169	0xbcd9be5e	-0.026580032
170	0xbdc30086	-0.09521584
171	0x3e2b440b	0.16725175
172	0xbdb5eeab	-0.08883413
173	0xbd2efe61	-0.042723063
174	0x3e52ec67	0.20597993
175	0xbd85d346	-0.06534438
176	0xba965068	-0.0011468055
177	0xbd8b766f	-0.06809699
178	0xbcd5c368	-0.026094154
179	0xbda03a0d	-0.07823572
180	0xbd90b223	-0.07065227
181	0xbcdeb5b1	-0.027186247
182	0xbd5556d0	-0.052084744
183	0x3829c0c8	4.047228e-05
184	0xbe5d2019	-0.21594276
185	0xbd6ee978	-0.058328122
186	0x3d480398	0.048831552
187	0xbbb569ad	-0.005536279
188	0xbdea3c1e	-0.11437248
189	0xbc703239	-0.0146604115
190	0xbd872ada	-0.0659997
191	0xb9e1e56b	-0.00043086274
192	0xbd833a8e	-0.06407653
193	0x389d6e0e	7.506843e-05
194	0xbe0f26e9	-0.13979687
195	0xbe385315	-0.18000443
196	0x3d797624	0.060903683
197	0xbe06fd4f	-0.13182567
198	0xbc801bc8	-0.015638247
199	0xbc4ed524	-0.012624059
200	0xbd6d378c	-0.0579143
201	0x3b9244d9	0.0044637737
202	0xbd87276a	-0.065993145
203	0xbd90fa88	-0.07079035
204	0xbd446d12	-0.04795558
205	0xbd03edb5	-0.032209117
206	0x3e151f99	0.14562835
207	0x3b80679a	0.0039186003
208	0xbe5bbde8	-0.21459162
209	0x3dab9bff	0.08379363
210	0xbd6bd267	-0.057573702
211	0x3b9c1805	0.0047636055
212	0xbd464416	-0.048404776
213	0xbb91a5b2	-0.0044448012
214	0xbd60556b	-0.05476896
215	0xbc874a7d	-0.016515011
216	0xbd2e73f8	-0.042591065
217	0x3b17e99c	0.0023180014
218	0xbe645ea4	-0.22301728
219	0xbd5359ed	-0.05159943
220	0xbc245e52	-0.010032253
221	0xbd65c6a6	-0.05609765
222	0x3b56d5fd	0.0032781356
223	0x3da8cbd4	0.08242002
224	0x3c0e5515	0.008687277
225	0x3e953679	0.29143122
226	0xbcd7c69e	-0.026339825
227	0x3e31d9bc	0.17368215
228	0xbd0bb7e4	-0.03411092
229	0xbb93e4b8	-0.0045133494
230	0xbcc073cb	-0.023492714
231	0xbcbd51e2	-0.023110334
232	0xbc0dc294	-0.008652348
233	0xbd34d415	-0.04414757
234	0x3d37d381	0.04487944
235	0xbba00122	-0.0048829475
236	0xbc845ffc	-0.01615905
237	0x3b0572f3	0.0020362705
238	0xbd9eb18f	-0.0774871
239	0xbd880998	-0.06642455
240	0xbd39fa96	-0.045404993
241	0x3da6de4a	0.08147867
242	0xbcea56ff	-0.028605936
243	0xbe260b91	-0.1621535
244	0x3e0b784d	0.1362011
245	0x3ca0dd08	0.019636646
246	0xbcd824bf	-0.02638471
247	0x3e3607ff	0.17776488
248	0xbcc56d2e	-0.024099912
249	0xbb24b878	-0.0025134366
250	0xbc00cb6d	-0.0078610005
251	0xbacf6a35	-0.0015824499
252	0x3e11a61a	0.14223519
253	0xba1f392b	-0.00060738873
254	0xbe040798	-0.12893522
255	0xbe3c553a	-0.18391886

5.bias f4 [10]
0	0xbe78da63	-0.24302058
1	0xbe8d586b	-0.2760652
2	0xbd5dfd94	-0.05419691
3	0xbd08e3c9	-0.033420358
4	0xbe0cf9c1	-0.13767149
5	0x3ccf2b01	0.02528906
6	0xbde822f3	-0.11334791
7	0xbdd733b1	-0.10507906
8	0x3f22ff36	0.6367067
9	0x3d9023f7	0.0703811
